name: "LeelaNet"
layer {
  name: "data"
  type: "Input"
  top: "data"
  input_param { shape: { dim: 1 dim: 22 dim: 19 dim: 19 } }
}

layer {
  name: "conv1"
  type: "Convolution"
  # input -> output
  bottom: "data"
  top: "conv1"
  convolution_param {
    engine: CAFFE
    num_output: 96
    kernel_size: 5
    pad: 2
    stride: 1
  }
}

layer {
  name: "relu1"
  type: "ReLU"
  # in-place
  bottom: "conv1"
  top: "conv1"
  relu_param {
    engine: CAFFE
  }
}

layer {
  name: "bn1"
  type: "BatchNorm"
  bottom: "conv1"
  top: "bn1"
  batch_norm_param {
    use_global_stats: true
  }
  param {
    lr_mult: 0
  }
  param {
    lr_mult: 0
  }
  param {
    lr_mult: 0
  }
}

layer {
  name: "conv2"
  type: "Convolution"
  # input -> output
  bottom: "bn1"
  top: "conv2"
  convolution_param {
    engine: CAFFE
    num_output: 160
    kernel_size: 3
    pad: 1
    stride: 1
  }
}

layer {
  name: "relu2"
  type:  "ReLU"
  # in-place
  bottom: "conv2"
  top: "conv2"
  relu_param {
    engine: CAFFE
  }
}

layer {
  name: "bn2"
  type: "BatchNorm"
  bottom: "conv2"
  top: "bn2"
  batch_norm_param {
    use_global_stats: true
  }
  param {
    lr_mult: 0
  }
  param {
    lr_mult: 0
  }
  param {
    lr_mult: 0
  }
}

layer {
  name: "conv3"
  type: "Convolution"
  # input -> output
  bottom: "bn2"
  top: "conv3"
  convolution_param {
   engine: CAFFE
    num_output: 128
    kernel_size: 3
    pad: 1
    stride: 1
  }
}

layer {
  name: "relu3"
  type: "ReLU"
  # in-place
  bottom: "conv3"
  top: "conv3"
  relu_param {
    engine: CAFFE
  }
}

layer {
  name: "bn3"
  type: "BatchNorm"
  bottom: "conv3"
  top: "bn3"
  batch_norm_param {
    use_global_stats: true
  }
  param {
    lr_mult: 0
  }
  param {
    lr_mult: 0
  }
  param {
    lr_mult: 0
  }
}

layer {
  name: "conv4"
  type: "Convolution"
  # input -> output
  bottom: "bn3"
  top: "conv4"
  convolution_param {
    engine: CAFFE
    num_output: 128
    kernel_size: 3
    pad: 1
    stride: 1
  }
}

layer {
  name: "relu4"
  type: "ReLU"
  # in-place
  bottom: "conv4"
  top: "conv4"
  relu_param {
    engine: CAFFE
  }
}

layer {
  name: "bn4"
  type: "BatchNorm"
  bottom: "conv4"
  top: "bn4"
  batch_norm_param {
    use_global_stats: true
  }
  param {
    lr_mult: 0
  }
  param {
    lr_mult: 0
  }
  param {
    lr_mult: 0
  }
}

layer {
  name: "conv5"
  type: "Convolution"
  # input -> output
  bottom: "bn4"
  top: "conv5"
  convolution_param {
   engine: CAFFE
    num_output: 96
    kernel_size: 3
    pad: 1
    stride: 1
  }
}

layer {
  name: "relu5"
  type: "ReLU"
  # in-place
  bottom: "conv5"
  top: "conv5"
  relu_param {
    engine: CAFFE
  }
}

layer {
  name: "bn5"
  type: "BatchNorm"
  bottom: "conv5"
  top: "bn5"
  batch_norm_param {
    use_global_stats: true
  }
  param {
    lr_mult: 0
  }
  param {
    lr_mult: 0
  }
  param {
    lr_mult: 0
  }
}

layer {
  name: "conv6"
  type: "Convolution"
  # input -> output
  bottom: "bn5"
  top: "conv6"
  convolution_param {
    engine: CAFFE
    num_output: 96
    kernel_size: 3
    pad: 1
    stride: 1
  }
}

layer {
  name: "relu6"
  type: "ReLU"
  # in-place
  bottom: "conv6"
  top: "conv6"
  relu_param {
    engine: CAFFE
  }
}

layer {
  name: "bn6"
  type: "BatchNorm"
  bottom: "conv6"
  top: "bn6"
  batch_norm_param {
    use_global_stats: true
  }
  param {
    lr_mult: 0
  }
  param {
    lr_mult: 0
  }
  param {
    lr_mult: 0
  }
}

layer {
  name: "conv7"
  type: "Convolution"
  # input -> output
  bottom: "bn6"
  top: "conv7"
  convolution_param {
    engine: CAFFE
    num_output: 96
    kernel_size: 3
    pad: 1
    stride: 1
  }
}

layer {
  name: "relu7"
  type: "ReLU"
  # in-place
  bottom: "conv7"
  top: "conv7"
  relu_param {
    engine: CAFFE
  }
}

layer {
  name: "bn7"
  type: "BatchNorm"
  bottom: "conv7"
  top: "bn7"
  batch_norm_param {
    use_global_stats: true
  }
  param {
    lr_mult: 0
  }
  param {
    lr_mult: 0
  }
  param {
    lr_mult: 0
  }
}

layer {
  name: "conv8"
  type: "Convolution"
  # input -> output
  bottom: "bn7"
  top: "conv8"
  convolution_param {
    engine: CAFFE
    num_output: 64
    kernel_size: 3
    pad: 1
    stride: 1
  }
}

layer {
  name: "relu8"
  type: "ReLU"
  # in-place
  bottom: "conv8"
  top: "conv8"
  relu_param {
    engine: CAFFE
  }
}

layer {
  name: "bn8"
  type: "BatchNorm"
  bottom: "conv8"
  top: "bn8"
  batch_norm_param {
    use_global_stats: true
  }
  param {
    lr_mult: 0
  }
  param {
    lr_mult: 0
  }
  param {
    lr_mult: 0
  }
}

layer {
  name: "conv9"
  type: "Convolution"
  # input -> output
  bottom: "bn8"
  top: "conv9"
  convolution_param {
    engine: CAFFE
    num_output: 64
    kernel_size: 3
    pad: 1
    stride: 1
  }
}

layer {
  name: "relu9"
  type: "ReLU"
  # in-place
  bottom: "conv9"
  top: "conv9"
  relu_param {
    engine: CAFFE
  }
}

layer {
  name: "bn9"
  type: "BatchNorm"
  bottom: "conv9"
  top: "bn9"
  batch_norm_param {
    use_global_stats: true
  }
  param {
    lr_mult: 0
  }
  param {
    lr_mult: 0
  }
  param {
    lr_mult: 0
  }
}

layer {
  name: "conv10"
  type: "Convolution"
  # input -> output
  bottom: "bn9"
  top: "conv10"
  convolution_param {
    engine: CAFFE
    num_output: 1
    kernel_size: 3
    pad: 1
    stride: 1
  }
}

layer {
  name: "flatten"
  type: "Flatten"
  bottom: "conv10"
  top: "flatten"
}

layer {
  name: "loss"
  type: "Softmax"
  # input
  bottom: "flatten"
  # output
  top: "loss"
}
