name: "LeelaNet"
layer {
  type: "Data"
  name: "data"
  # outputs
  top: "data"
  include {
    phase: TRAIN
  }
  data_param {
    source: "leela_train"
    batch_size: 256
    backend: LEVELDB
  }
}

layer {
  type: "Data"
  name: "data"
  # outputs
  top: "data"
  include {
    phase: TEST
  }
  data_param {
    source: "leela_test"
    batch_size: 256
    backend: LEVELDB
  }
}

layer {
  type: "Data"
  name: "label"
  # outputs
  top: "label_unsliced"
  include {
    phase: TRAIN
  }
  data_param {
    source: "leela_train_label"
    batch_size: 256
    backend: LEVELDB
  }
}

layer {
  type: "Data"
  name: "label"
  # outputs
  top: "label_unsliced"
  include {
    phase: TEST
  }
  data_param {
    source: "leela_test_label"
    batch_size: 256
    backend: LEVELDB
  }
}

layer {
  name: "slicer_label"
  type: "Slice"
  bottom: "label_unsliced"
  top: "wonpc"
  top: "won"
  slice_param {
    axis: 1
    slice_point: 1
  }
}

layer {
  name: "silence"
  type: "Silence"
  bottom: "wonpc"
}

layer {
  name: "conv1"
  type: "Convolution"
  # input -> output
  bottom: "data"
  top: "conv1"
  convolution_param {
    num_output: 32
    kernel_size: 5
    pad: 2
    weight_filler {
      type: "xavier"
    }
    bias_filler {
      type: "constant" # initialize the biases to zero (0)
    }
  }
}

layer {
  name: "relu1"
  type: "ReLU"
  # in-place
  bottom: "conv1"
  top: "conv1"
}

layer {
  name: "conv2"
  type: "Convolution"
  # input -> output
  bottom: "conv1"
  top: "conv2"
  convolution_param {
    num_output: 32
    kernel_size: 3
    pad: 1
    weight_filler {
      type: "xavier"
    }
    bias_filler {
      type: "constant"
    }
  }
}

layer {
  name: "relu2"
  type:  "ReLU"
  # in-place
  bottom: "conv2"
  top: "conv2"
}

layer {
  name: "conv3"
  type: "Convolution"
  # input -> output
  bottom: "conv2"
  top: "conv3"
  convolution_param {
    num_output: 32
    kernel_size: 3
    pad: 1
    weight_filler {
      type: "xavier"
    }
    bias_filler {
      type: "constant"
    }
  }
}

layer {
  name: "relu3"
  type: "ReLU"
  bottom: "conv3"
  top: "conv3"
}

layer {
  name: "conv4"
  type: "Convolution"
  # input -> output
  bottom: "conv3"
  top: "conv4"
  convolution_param {
    num_output: 32
    kernel_size: 3
    pad: 1
    weight_filler {
      type: "xavier"
    }
    bias_filler {
      type: "constant"
    }
  }
}

layer {
  name: "relu4"
  type: "ReLU"
  # in-place
  bottom: "conv4"
  top: "conv4"
}

layer {
  name: "conv5"
  type: "Convolution"
  # input -> output
  bottom: "conv4"
  top: "conv5"
  convolution_param {
    num_output: 32
    kernel_size: 3
    pad: 1
    weight_filler {
      type: "xavier"
    }
    bias_filler {
      type: "constant"
    }
  }
}

layer {
  name: "relu5"
  type: "ReLU"
  bottom: "conv5"
  top: "conv5"
}

layer {
  name: "conv6"
  type: "Convolution"
  # input -> output
  bottom: "conv5"
  top: "conv6"
  convolution_param {
    num_output: 32
    kernel_size: 3
    pad: 1
    weight_filler {
      type: "xavier"
    }
    bias_filler {
      type: "constant"
    }
  }
}

layer {
  name: "relu6"
  type: "ReLU"
  # in-place
  bottom: "conv6"
  top: "conv6"
}

layer {
  name: "conv7"
  type: "Convolution"
  # input -> output
  bottom: "conv6"
  top: "conv7"
  convolution_param {
    num_output: 32
    kernel_size: 3
    pad: 1
    weight_filler {
      type: "xavier"
    }
    bias_filler {
      type: "constant"
    }
  }
}

layer {
  name: "relu7"
  type: "ReLU"
  bottom: "conv7"
  top: "conv7"
}

layer {
  name: "conv8"
  type: "Convolution"
  bottom: "conv7"
  top: "conv8"
  convolution_param {
    num_output: 32
    kernel_size: 3
    pad: 1
    weight_filler {
      type: "xavier"
    }
    bias_filler {
      type: "constant"
    }
  }
}

layer {
  name: "relu8"
  type: "ReLU"
  bottom: "conv8"
  top: "conv8"
}

layer {
  name: "conv9"
  type: "Convolution"
  # input -> output
  bottom: "conv8"
  top: "conv9"
  convolution_param {
    num_output: 32
    kernel_size: 3
    pad: 1
    weight_filler {
      type: "xavier"
    }
    bias_filler {
      type: "constant"
    }
  }
}

layer {
  name: "relu9"
  type: "ReLU"
  # in-place
  bottom: "conv9"
  top: "conv9"
}

layer {
  name: "conv10"
  type: "Convolution"
  # input -> output
  bottom: "conv9"
  top: "conv10"
  convolution_param {
    num_output: 32
    kernel_size: 3
    pad: 1
    weight_filler {
      type: "xavier"
    }
    bias_filler {
      type: "constant"
    }
  }
}

layer {
  name: "relu10"
  type: "ReLU"
  # in-place
  bottom: "conv10"
  top: "conv10"
}

layer {
  name: "conv11"
  type: "Convolution"
  # input -> output
  bottom: "conv10"
  top: "conv11"
  convolution_param {
    num_output: 32
    kernel_size: 3
    pad: 1
    weight_filler {
      type: "xavier"
    }
    bias_filler {
      type: "constant"
    }
  }
}

layer {
  name: "relu11"
  type: "ReLU"
  # in-place
  bottom: "conv11"
  top: "conv11"
}

layer {
  name: "conv12"
  type: "Convolution"
  bottom: "conv11"
  top: "conv12"
  convolution_param {
    num_output: 1
    kernel_size: 1
    pad: 0
    weight_filler {
      type: "xavier"
    }
    bias_filler {
      type: "constant"
    }
  }
}

layer {
  name: "relu12"
  type: "ReLU"
  bottom: "conv12"
  top: "conv12"
}

layer {
  name: "ip13"
  type: "InnerProduct"
  inner_product_param {
    num_output: 256
    weight_filler {
      type: "xavier"
    }
    bias_filler {
      type: "constant"
    }
  }
  bottom: "conv12"
  top: "ip13"
}

layer {
  name: "relu13"
  type: "ReLU"
  bottom: "ip13"
  top: "ip13"
}

layer {
  name: "ip14"
  type: "InnerProduct"
  inner_product_param {
    num_output: 1
    weight_filler {
      type: "xavier"
    }
    bias_filler {
      type: "constant"
    }
  }
  bottom: "ip13"
  top: "ip14"
}

layer {
  name: "sigmoid"
  type: "Sigmoid"
  bottom: "ip14"
  top: "winrate"
}

layer {
  name: "loss_ce"
  type: "SigmoidCrossEntropyLoss"
  bottom: "ip14"
  bottom: "won"
  top: "loss_ce"
  loss_weight: 1
}

layer {
  name: "loss_mse"
  type: "EuclideanLoss"
  bottom: "winrate"
  bottom: "won"
  top: "loss_mse"
  loss_weight: 0
}
