name: "LeelaNet"
layer {
  type: "Data"
  name: "data"
  # outputs
  top: "data_unsliced"
  top: "won"
  include {
    phase: TRAIN
  }
  data_param {
    source: "leela_train"
    batch_size: 64
    backend: LEVELDB
  }
}

layer {
  type: "Data"
  name: "data"
  # outputs
  top: "data_unsliced"
  top: "won"
  include {
    phase: TEST
  }
  data_param {
    source: "leela_test"
    batch_size: 64
    backend: LEVELDB
  }
}

layer {
  name: "slicer_label"
  type: "Slice"
  bottom: "data_unsliced"
  top: "data"
  top: "label_move1"
  top: "label_move2"
  top: "label_move3"
  slice_param {
    axis: 1
    slice_point: 48
    slice_point: 49
    slice_point: 50
  }
}

layer {
  name: "silence"
  type: "Silence"
  bottom: "label_move2"
  bottom: "label_move3"
}

layer {
  name: "conv1"
  type: "Convolution"
  # input -> output
  bottom: "data"
  top: "conv1"
  # learning rate and decay multipliers for the filters
  param { lr_mult: 1 decay_mult: 1 }
  # learning rate and decay multipliers for the biases
  param { lr_mult: 2 decay_mult: 0 }
  convolution_param {
    num_output: 96
    kernel_size: 5
    pad: 2
    stride: 1
    weight_filler {
      type: "xavier"
    }
    bias_filler {
      type: "constant" # initialize the biases to zero (0)
    }
  }
}

layer {
  name: "elu1"
  type: "ELU"
  # in-place
  bottom: "conv1"
  top: "conv1"
}

layer {
  name: "conv2"
  type: "Convolution"
  # input -> output
  bottom: "conv1"
  top: "conv2"
  param { lr_mult: 1 decay_mult: 1 }
  param { lr_mult: 2 decay_mult: 0 }
  convolution_param {
    num_output: 96
    kernel_size: 3
    pad: 1
    stride: 1
    weight_filler {
      type: "xavier"
    }
    bias_filler {
      type: "constant" # initialize the biases to zero (0)
    }
  }
}

layer {
  name: "elu2"
  type:  "ELU"
  # in-place
  bottom: "conv2"
  top: "conv2"
}

layer {
  name: "conv3"
  type: "Convolution"
  # input -> output
  bottom: "conv2"
  top: "conv3"
  param { lr_mult: 1 decay_mult: 1 }
  param { lr_mult: 2 decay_mult: 0 }
  convolution_param {
    num_output: 96
    kernel_size: 3
    pad: 1
    stride: 1
    weight_filler {
      type: "xavier"
    }
    bias_filler {
      type: "constant" # initialize the biases to zero (0)
    }
  }
}

layer {
  name: "elu3"
  type: "ELU"
  # in-place
  bottom: "conv3"
  top: "conv3"
}

layer {
  name: "conv4"
  type: "Convolution"
  # input -> output
  bottom: "conv3"
  top: "conv4"
  param { lr_mult: 1 decay_mult: 1 }
  param { lr_mult: 2 decay_mult: 0 }
  convolution_param {
    num_output: 96
    kernel_size: 3
    pad: 1
    stride: 1
    weight_filler {
      type: "xavier"
    }
    bias_filler {
      type: "constant" # initialize the biases to zero (0)
    }
  }
}

layer {
  name: "elu4"
  type: "ELU"
  # in-place
  bottom: "conv4"
  top: "conv4"
}

layer {
  name: "conv5"
  type: "Convolution"
  # input -> output
  bottom: "conv4"
  top: "conv5"
  param { lr_mult: 1 decay_mult: 1 }
  param { lr_mult: 2 decay_mult: 0 }
  convolution_param {
    num_output: 96
    kernel_size: 3
    pad: 1
    stride: 1
    weight_filler {
      type: "xavier"
    }
    bias_filler {
      type: "constant" # initialize the biases to zero (0)
    }
  }
}

layer {
  name: "elu5"
  type: "ELU"
  # in-place
  bottom: "conv5"
  top: "conv5"
}

layer {
  name: "conv6"
  type: "Convolution"
  # input -> output
  bottom: "conv5"
  top: "conv6"
  param { lr_mult: 1 decay_mult: 1 }
  param { lr_mult: 2 decay_mult: 0 }
  convolution_param {
    num_output: 96
    kernel_size: 3
    pad: 1
    stride: 1
    weight_filler {
      type: "xavier"
    }
    bias_filler {
      type: "constant" # initialize the biases to zero (0)
    }
  }
}

layer {
  name: "elu6"
  type: "ELU"
  # in-place
  bottom: "conv6"
  top: "conv6"
}

layer {
  name: "conv7"
  type: "Convolution"
  # input -> output
  bottom: "conv6"
  top: "conv7"
  param { lr_mult: 1 decay_mult: 1 }
  param { lr_mult: 2 decay_mult: 0 }
  convolution_param {
    num_output: 96
    kernel_size: 3
    pad: 1
    stride: 1
    weight_filler {
      type: "xavier"
    }
    bias_filler {
      type: "constant" # initialize the biases to zero (0)
    }
  }
}

layer {
  name: "elu7"
  type: "ELU"
  # in-place
  bottom: "conv7"
  top: "conv7"
}

layer {
  name: "conv8"
  type: "Convolution"
  # input -> output
  bottom: "conv7"
  top: "conv8"
  param { lr_mult: 1 decay_mult: 1 }
  param { lr_mult: 2 decay_mult: 0 }
  convolution_param {
    num_output: 2
    kernel_size: 3
    pad: 1
    stride: 1
    weight_filler {
      type: "xavier"
    }
    bias_filler {
      type: "constant" # initialize the biases to zero (0)
    }
  }
}

layer {
  name: "slicer_output"
  type: "Slice"
  bottom: "conv8"
  top: "conv8_o1"
  top: "conv8_o2"
  slice_param {
    axis: 1
    slice_point: 1
  }
}

layer {
  name: "fc"
  type: "InnerProduct"
  # learning rate and decay multipliers for the weights
  param { lr_mult: 1 decay_mult: 1 }
  # learning rate and decay multipliers for the biases
  param { lr_mult: 2 decay_mult: 0 }
  inner_product_param {
    num_output: 1
    weight_filler {
      type: "xavier"
    }
    bias_filler {
      type: "constant"
    }
  }
  bottom: "conv8_o2"
  top: "fc_out"
}

layer {
  name: "Win"
  type: "Sigmoid"
  bottom: "fc_out"
  top: "winrate"
}

layer {
  name: "flatten_o1"
  type: "Flatten"
  bottom: "conv8_o1"
  top: "flatten_o1"
}

layer {
  name: "flatten_l1"
  type: "Flatten"
  bottom: "label_move1"
  top: "label_move1_f"
  flatten_param {
    axis: 1
  }
}

layer {
  name: "argmax_l1"
  type: "ArgMax"
  bottom: "label_move1_f"
  top: "label_move1_m"
}

layer {
  name: "loss_1"
  type: "SoftmaxWithLoss"
  # input
  bottom: "flatten_o1"
  bottom: "label_move1_m"
  # output
  top: "loss_1"
}

layer {
  name: "loss_w"
  type: "EuclideanLoss"
  bottom: "winrate"
  bottom: "won"
  top: "loss_w"
}

layer {
  name: "accuracy"
  type: "Accuracy"
  # input
  bottom: "flatten_o1"
  bottom: "label_move1_m"
  include {
    phase: TEST
  }
  # output
  top: "accuracy"
}
